…
[I] [2023-03-05 12:54:43,816] 
[I] [2023-03-05 12:55:24,578] Model: "functional_1"
[I] [2023-03-05 12:55:24,578] _________________________________________________________________
[I] [2023-03-05 12:55:24,578] Layer (type)                 Output Shape              Param #   
[I] [2023-03-05 12:55:24,579] =================================================================
[I] [2023-03-05 12:55:24,579] input_1 (InputLayer)         [(None, 140, 8, 1)]       0         
[I] [2023-03-05 12:55:24,579] _________________________________________________________________
[I] [2023-03-05 12:55:24,579] Conv-1 (Conv2D)              (None, 140, 8, 10)        360       
[I] [2023-03-05 12:55:24,580] _________________________________________________________________
[I] [2023-03-05 12:55:24,580] batch_normalization (BatchNo (None, 140, 8, 10)        40        
[I] [2023-03-05 12:55:24,580] _________________________________________________________________
[I] [2023-03-05 12:55:24,581] activation (Activation)      (None, 140, 8, 10)        0         
[I] [2023-03-05 12:55:24,581] _________________________________________________________________
[I] [2023-03-05 12:55:24,581] Conv-2 (Conv2D)              (None, 140, 8, 14)        2954      
[I] [2023-03-05 12:55:24,581] _________________________________________________________________
[I] [2023-03-05 12:55:24,581] batch_normalization_1 (Batch (None, 140, 8, 14)        56        
[I] [2023-03-05 12:55:24,581] _________________________________________________________________
[I] [2023-03-05 12:55:24,582] activation_1 (Activation)    (None, 140, 8, 14)        0         
[I] [2023-03-05 12:55:24,582] _________________________________________________________________
[I] [2023-03-05 12:55:24,582] max_pooling2d (MaxPooling2D) (None, 140, 4, 14)        0         
[I] [2023-03-05 12:55:24,582] _________________________________________________________________
[I] [2023-03-05 12:55:24,582] dropout (Dropout)            (None, 140, 4, 14)        0         
[I] [2023-03-05 12:55:24,582] _________________________________________________________________
[I] [2023-03-05 12:55:24,583] Conv-3 (Conv2D)              (None, 140, 4, 28)        8260      
[I] [2023-03-05 12:55:24,583] _________________________________________________________________
[I] [2023-03-05 12:55:24,583] batch_normalization_2 (Batch (None, 140, 4, 28)        112       
[I] [2023-03-05 12:55:24,583] _________________________________________________________________
[I] [2023-03-05 12:55:24,583] activation_2 (Activation)    (None, 140, 4, 28)        0         
[I] [2023-03-05 12:55:24,583] _________________________________________________________________
[I] [2023-03-05 12:55:24,584] max_pooling2d_1 (MaxPooling2 (None, 70, 2, 28)         0         
[I] [2023-03-05 12:55:24,584] _________________________________________________________________
[I] [2023-03-05 12:55:24,584] dropout_1 (Dropout)          (None, 70, 2, 28)         0         
[I] [2023-03-05 12:55:24,584] _________________________________________________________________
[I] [2023-03-05 12:55:24,584] Conv-3_0 (Conv2D)            (None, 70, 2, 16)         15696     
[I] [2023-03-05 12:55:24,584] _________________________________________________________________
[I] [2023-03-05 12:55:24,585] batch_normalization_3 (Batch (None, 70, 2, 16)         64        
[I] [2023-03-05 12:55:24,585] _________________________________________________________________
[I] [2023-03-05 12:55:24,585] activation_3 (Activation)    (None, 70, 2, 16)         0         
[I] [2023-03-05 12:55:24,585] _________________________________________________________________
[I] [2023-03-05 12:55:24,585] dropout_2 (Dropout)          (None, 70, 2, 16)         0         
[I] [2023-03-05 12:55:24,585] _________________________________________________________________
[I] [2023-03-05 12:55:24,585] global_average_pooling2d (Gl (None, 16)                0         
[I] [2023-03-05 12:55:24,585] _________________________________________________________________
[I] [2023-03-05 12:55:24,585] flatten (Flatten)            (None, 16)                0         
[I] [2023-03-05 12:55:24,587] _________________________________________________________________
[I] [2023-03-05 12:55:24,587] lastLayer (Dense)            (None, 256)               4352      
[I] [2023-03-05 12:55:24,587] _________________________________________________________________
[I] [2023-03-05 12:55:24,588] dropout_3 (Dropout)          (None, 256)               0         
[I] [2023-03-05 12:55:24,588] _________________________________________________________________
[I] [2023-03-05 12:55:24,588] dense (Dense)                (None, 6)                 1542      
[I] [2023-03-05 12:55:24,588] =================================================================
[I] [2023-03-05 12:55:24,589] Total params: 33,436
[I] [2023-03-05 12:55:24,589] Trainable params: 33,300
[I] [2023-03-05 12:55:24,589] Non-trainable params: 136
[I] [2023-03-05 12:55:24,589] _________________________________________________________________
[I] [2023-03-05 12:55:24,673]   Training
…
